policy_100K.pt (torch, 3703 bytes, 8 tensors)

in_layer.weight f4 [8, 8]
00000000: 9ffa 2c3d 83bd c5bc 8e3d e6be b2e7 12bf
00000010: b186 8e3f c36d 2fc0 085e 2dbe 138a 423f
00000020: 36dc d1bc 9e45 5ebd 4f2f eebd eb73 493e
00000030: b51a c9bf 3200 01c0 4c47 e8bf f4b2 0f3f
00000040: 8437 523e dc01 ee3e 809f 0cc0 8961 d7bf
00000050: ace1 9abc 9c6b a13f fe17 693e fd06 84bf
00000060: 1820 d33e 4d7b 6f3f e1c2 3abf 261b 19b9
00000070: b724 3f40 4d75 3a3f a30f 4bbf 1ceb ad3e
00000080: 8b73 9a3d c7f6 b43e 311c 0240 2241 23c0
00000090: 5cc6 c53f 2922 2c3f eca2 74be 08d2 65bf
000000a0: 288e b6bd 19bc 0cbb 3042 503f eb2d de3e
000000b0: 9b1a a23f ef4d 0440 51d6 703f 8fee 493d
000000c0: 6e94 4f3c f966 13bd 3e7b 44bf eb91 16c0
000000d0: 8791 593f 10a2 743f a0ca d43e 7b49 b5be
000000e0: 2049 823e 9c5c eb3e 1f12 6e3e e03f dbbd
000000f0: 6903 6cc0 178e e4be 7db9 903f 4062 a73d
0.0422312 -0.024138218 -0.44968837 -0.5738479 1.1134855 -2.7410743 -0.16930401 0.75991935
-0.0256177 -0.05426561 -0.11630117 0.19673125 -1.5711275 -2.015637 -1.8146758 0.56132436
0.2052899 0.46485794 -2.197235 -1.682664 -0.018906437 1.2610965 0.22763059 -1.0314633
0.41235423 0.9354752 -0.7295361 -0.0001460133 2.986616 0.72835237 -0.79320735 0.33968437
0.07541569 0.35344526 2.0329707 -2.5508504 1.545116 0.67239624 -0.23890275 -0.8977361
-0.08913833 -0.002147442 0.81350994 0.43394408 1.2664369 2.0672567 0.9407702 0.049299773
0.012669666 -0.035986874 -0.7675055 -2.3526561 0.8498768 0.9555979 0.4156084 -0.35407624
0.25446415 0.45969093 0.232491 -0.107055426 -3.6877081 -0.44639656 1.1306607 0.081730366

in_layer.bias f4 [8]
00000000: 760c a43e 9a07 b13d 3cd1 643e ec79 2d3e
00000010: bb7e 903d 9ef5 153f 6d87 143f ac45 ec3e
0.32040757 0.08644028 0.22345442 0.16941041 0.07055422 0.5857791 0.58019143 0.46146905

layers.0.weight f4 [8, 8]
00000000: 27d5 86be fac6 a73f bb50 013e 354f 783f
00000010: 0300 073e 77fa 903f d95e d13e f1eb d03c
00000020: ac5c eb3e 92c1 2d3f 6d97 29bf c952 4c3e
00000030: 270b 2e3f ae90 673f e63e df3e af27 6f3f
00000040: 780c 68bf 8568 ca3d 9093 d1bf 8827 a63f
00000050: 530c 38c0 dd47 b43f d693 1cc0 62b6 a13e
00000060: 303f af3f cb0c ae3f c4a8 80be 7f9d 39bd
00000070: 9686 3fbf cca7 70bf 4146 c9bc bd87 fc3e
00000080: fa9e f83e 5faf 163f 17a2 3dbf fd68 c3be
00000090: 8694 3cbf bc4b 9dbd fc18 84bf c629 a53e
000000a0: df6e 8f3f 4125 bb3e 7b21 87bf 9b51 b43f
000000b0: 2987 2f3f 5bec 21bf 1bf2 58bf d8f2 0ec0
000000c0: f705 f2bf 2df1 e6be 5c86 d63e a704 613f
000000d0: ed97 4abf 61de a5bf bbb9 093f 94b4 613e
000000e0: ecbc 9cba 2769 b7bf 19cd bb3f 4ca0 14bf
000000f0: 32d8 4e3f 3f85 27bf 153e 4f3c f689 993f
-0.26334497 1.3107598 0.12628452 0.9699586 0.13183598 1.1326436 0.40892676 0.02550313
0.4596914 0.6787349 -0.6624668 0.19953455 0.6798577 0.9045514 0.43602675 0.9341993
-0.90644026 0.09883217 -1.6373158 1.2980814 -2.8757522 1.4084431 -2.4465232 0.3158446
1.3691158 1.3597654 -0.25128758 -0.045316216 -0.74814737 -0.9400604 -0.024569632 0.4932231
0.4855879 0.58861345 -0.74075454 -0.38166037 -0.7366413 -0.07680461 -1.0320125 0.32258433
1.120571 0.3655186 -1.0557092 1.4087404 0.68565613 -0.63251275 -0.84744424 -2.233572
-1.890807 -0.45105878 0.41899383 0.87897724 -0.7913807 -1.295849 0.5379903 0.22041541
-0.0011958159 -1.4328965 1.4671966 -0.58057094 0.8079864 -0.6543769 0.012649079 1.1995227

layers.0.bias f4 [8]
00000000: b333 bc3e 7a9b 423e 6803 2a3f 8f76 f63e
00000010: b099 b0be e1a3 4b3f ded5 4a3f ebd8 223f
0.36758193 0.19004622 0.6641145 0.48137328 -0.34492254 0.79546934 0.79232585 0.6361224

layers.1.weight f4 [8, 8]
00000000: 4106 283f d832 583f 948d 62bf 9170 c33d
00000010: 8a85 11bf 99ed fdbe af31 783d 715b 53be
00000020: 085e 473f dc99 133f d1fb ebbf 147e 063f
00000030: 34e3 bcbe d2a4 8abf 0e0f 2c3e e879 81bf
00000040: 7f90 cdbd 328d 863f 5236 963f 41ce 423f
00000050: 4162 db3e 9181 8d3f d69e b33e aa09 053f
00000060: bb35 e43e 853c 213f e2ea 1a3f 1d89 9e3e
00000070: db46 dfbe 6280 6abf 5669 0f3f b604 66bf
00000080: 05a3 44bf bf72 2a3f 59dc f13e 3383 d8be
00000090: 4d6f 933e 791c 163f 2c60 0dc0 882c f23f
000000a0: d872 4d3f 2b5a 8c3f 19ac 1cbf 743f d13e
000000b0: 62bd 35bf 4045 60bf 1e1f 93be b709 6ebf
000000c0: b161 c23e 9c3c 643f dac6 5cbf c2c9 da3f
000000d0: 019d 5abf 5470 e0bf 7e95 97bc bda1 0bbf
000000e0: 8c09 2c3f 0663 4dbe 760d 883e 4620 483f
000000f0: 91ae 213f 9aef 073f 65b0 303e f26b c63d
0.6563454 0.8445258 -0.8849728 0.09542955 -0.5684439 -0.49595335 0.060594257 -0.20640351
0.77877855 0.57656646 -1.8436223 0.5253613 -0.36892092 -1.0831549 0.16802618 -1.0115328
-0.10037326 1.0511839 1.1735327 0.7609597 0.428484 1.1055166 0.3508212 0.5196787
0.44572243 0.6298297 0.6051465 0.30963984 -0.43608746 -0.91602147 0.56020105 -0.8985094
-0.7681125 0.6658134 0.47238424 -0.42287597 0.28795853 0.58637196 -2.2089949 1.891984
0.8025336 1.0965017 -0.612001 0.40868723 -0.709921 -0.8760567 -0.28734678 -0.92983574
0.37965158 0.8915498 -0.86240923 1.7092822 -0.8539582 -1.753428 -0.0185039 -0.5454367
0.6720207 -0.20057306 0.2657277 0.78174245 0.6315699 0.5309998 0.17254789 0.09688558

layers.1.bias f4 [8]
00000000: c792 88be 57a2 2fbe e261 6f3f 2854 e3bd
00000010: 9f78 003f 1cb6 da3d cdff 95be 569e 013f
-0.26674482 -0.17151771 0.9350873 -0.11100036 0.50184053 0.10679266 -0.29296723 0.50632226

out_layer.weight f4 [4, 8]
00000000: 8302 7fbf 62d7 e2bf 11a0 743f de19 4abd
00000010: 34f5 a03f 68b0 6bbf 115e b7bf da65 103f
00000020: 5f20 66bf a140 d3bf ff95 a13f 7691 23be
00000030: ed03 a63f 2f59 77bf 0918 97bf a8fc 3cbe
00000040: 5d43 ebbe 34f4 09bf 9f5e 913f 2379 e8bf
00000050: a0aa a63f 20bc acbf 5786 b0bf 1702 923e
00000060: 95b7 9ebf 1f1e 57bf 453e 313f ea6d d4bd
00000070: a7ea a83f 01f8 92bf 6072 f1bf 9888 a23f
-0.9961321 -1.772198 0.9555674 -0.049341075 1.257483 -0.9206605 -1.4325582 0.56405413
-0.89893144 -1.6504098 1.26239 -0.15973458 1.2969948 -0.9662046 -1.180421 -0.18455756
-0.45949832 -0.5388825 1.1357001 -1.8161968 1.3020821 -1.3494911 -1.3790997 0.2851722
-1.2399775 -0.84030336 0.6923564 -0.10372527 1.319661 -1.1481935 -1.886303 1.2697935

out_layer.bias f4 [4]
00000000: d0cd 8a3e c8bb 733e 6834 7a3d af41 b33e
0.27110147 0.23802102 0.061085135 0.3501105
